attention/multi_checkpoint.pth (torch, 740752 bytes, 89 tensors)

embedding.weight f4 [64, 4]
000000 0c e2 0f be d7 d9 d2 3f a7 00 c3 bc b2 28 c8 3d
       -0.14051074 1.647273 -0.023804022 0.09773387
000010 1d 11 1d bf 5e eb 2a c0 97 46 5a be 1a 16 05 3e
       -0.6135424 -2.6706157 -0.2131599 0.12996712
000020 48 36 6c 3b b6 d4 81 bd ad e7 ac bd 8f 62 12 be
       0.0036043096 -0.063393995 -0.08442626 -0.1429541
000030 4e 36 dd 3e a2 8c 2e 3e 63 b8 25 bf e2 bd 01 bf
       0.43205494 0.17045835 -0.64734477 -0.50680363
000040 84 a3 6e bd 3e 45 b7 bd d2 64 52 bd 82 e0 a7 3d
       -0.05826141 -0.08948754 -0.05136568 0.08197118
000050 91 02 16 be 98 64 d9 3e 43 f9 aa 3e 37 2d 2b 3f
       -0.14649417 0.4245956 0.33393297 0.6686587
000060 2c 73 84 be ec a6 0b be d0 eb 9d be 1f ee 19 3e
       -0.2586912 -0.13637894 -0.30843973 0.15032242
000070 90 01 78 3d 98 40 54 3f 96 1e 0c bd 31 f2 d3 bb
       0.060548365 0.8291106 -0.034208857 -0.0064680804
000080 86 92 b7 3e e2 e9 12 3e 24 cf 2d bf 93 ff 13 3f
       0.35853976 0.14347032 -0.67894197 0.5781185
000090 63 1d 71 bf fa 41 6c 3e 9a 67 83 3d 7d 1b b2 3e
       -0.94185466 0.23072043 0.06416245 0.34786597
0000a0 22 57 45 be 0d bb 90 3f ec 6f fa be ab 0c af 3e
       -0.1927152 1.1307083 -0.48913515 0.34189352
0000b0 54 01 a4 3f da f2 dd be 2c 44 a3 3d 8d af ee 3e
       1.2812905 -0.43349344 0.07971987 0.4661831
0000c0 e3 09 36 3f 77 b2 31 be 9c 90 30 be a0 84 5e bf
       0.71108836 -0.17353235 -0.17242664 -0.8692112
0000d0 cd 47 2d 3f 41 a2 03 be cb ca 72 3e a2 b4 b0 3e
       0.67687684 -0.12854864 0.23710172 0.34512812
0000e0 6e b9 3f 3d 17 38 f3 3d 2d b2 87 bf f5 22 fd 3c
       0.0468077 0.11875933 -1.060125 0.030900458
0000f0 83 e8 ef be d9 df ec bd cc 1d 9e 3b 8f 3e 25 3e
       -0.4685708 -0.11566133 0.0048253294 0.16137145
000100 99 93 34 bf 86 04 1e bf 6e 3b 51 3d bf 53 54 3e
       -0.70537716 -0.6172565 0.051082067 0.20735072
000110 14 02 45 3f 3f 2e 55 3f 72 8d 42 3f b4 69 cf 3c
       0.76956296 0.8327369 0.7599708 0.025318958
000120 b7 d2 bf be a3 8e e8 3f ae 5d 3e bf ac 7d df 3b
       -0.3746545 1.8168529 -0.74361694 0.006820401
000130 1a 34 bf be d6 89 4a 3c 04 97 67 3d 90 41 7d bd
       -0.37344438 0.012361964 0.056540504 -0.061830103
000140 2f 4b 69 3e 9d 0c 6a bf 11 72 5e bf 65 35 a5 be
       0.22782587 -0.91425496 -0.868928 -0.322673
000150 fd b6 c5 be 14 f1 23 3d c9 97 cb 3c 3b bc 6d 3d
       -0.3861617 0.040024832 0.02485265 0.05804084
000160 76 0c 37 be b3 7d ba bd 08 d0 43 bd a6 d8 4d 3e
       -0.17875847 -0.091060065 -0.047805816 0.20102176
000170 57 b2 a8 be 4d 9b 02 be 81 c5 1d 3f be 03 34 3e
       -0.32948563 -0.12754555 0.6162949 0.17579553
000180 e9 f4 df 3b 79 d4 47 bd cf c9 7f ba 48 fb da 3d
       0.0068346155 -0.048786614 -0.000975755 0.10692459
000190 55 50 25 bf b9 ff ac bf 69 21 ba 3c 5f 86 9a bd
       -0.645757 -1.351554 0.02272101 -0.075451605
0001a0 ec 15 4a bd 66 44 58 bd 50 ec 02 bd ed 2d 6e 3c
       -0.049337313 -0.052799605 -0.031963646 0.014537317
0001b0 83 27 70 b9 5e b6 ab b9 e7 1b 59 bd 7d c6 a3 bd
       -0.00022902903 -0.00032751536 -0.053005125 -0.07996843
0001c0 0f 34 47 bf 26 fa 82 bf 29 39 05 bf 1d e1 0d 3f
       -0.7781381 -1.0232589 -0.52040344 0.5542162
0001d0 33 2a f7 3f db c4 a2 be 68 51 91 3e e2 d5 17 be
       1.9309753 -0.31790814 0.2838242 -0.14827684
0001e0 47 e5 60 bc ae 15 8d be 80 39 e6 be 28 16 d1 3d
       -0.013726539 -0.27555603 -0.44965744 0.10209304
0001f0 2f 18 55 be d7 93 70 bf d6 e8 ed be 74 cc 09 3e
       -0.20810007 -0.93975586 -0.46466702 0.13456899
000200 3a 51 9b be d8 91 29 bd 24 2c fc bd 09 6a 81 3e
       -0.30335408 -0.041398853 -0.12313107 0.2527621
000210 e8 4e 19 3d 40 2a 5d bd 5e 1a b3 bc 8b 29 36 3c
       0.037428766 -0.05399537 -0.021863159 0.011118303
000220 7f c0 b4 be b4 ae 3b be be 21 a9 be 6f 19 c2 3e
       -0.35303113 -0.18328363 -0.33033556 0.3791003
000230 22 40 4b 3e fe 01 e5 3d 14 ce 30 be 3d 5e 90 bd
       0.19848683 0.111820206 -0.17266113 -0.070492245
000240 f8 d2 8f be 07 af 40 bf f2 aa a2 3f 49 6f 99 3e
       -0.28090644 -0.7526707 1.2708418 0.29967716
000250 e7 90 82 3e 1b 29 56 bf 15 00 f8 bd ab 0b 60 3c
       0.25501177 -0.8365647 -0.12109391 0.013674657
000260 38 f4 01 3f ae 43 10 3d 54 92 28 bf 65 97 17 bf
       0.50763273 0.035220794 -0.6584828 -0.59215385
000270 e5 98 86 3e 05 44 7e 3e 4e 39 9d 3c f4 7a 2b bf
       0.26288524 0.24830635 0.019192364 -0.66984487
000280 24 6c ee bd f8 9e a9 bf 31 5a bd bd ad cf 91 3e
       -0.1164172 -1.3251638 -0.09245718 0.28478757
000290 a7 d9 78 be 22 5e 4c 3f d0 8c 83 bf 69 80 a4 3e
       -0.24301778 0.79831135 -1.0277348 0.3212922
0002a0 06 f1 5b bf d3 7e 8d bf 4c f0 3b 3f a7 f9 94 3d
       -0.8591465 -1.1054329 0.7341354 0.0727418
0002b0 5c b7 b8 be c0 bf 1a 3f 52 3c 89 3d 31 ac 6c be
       -0.36077392 0.6044884 0.06700958 -0.23112561
0002c0 94 d4 e2 bc 1a 03 d9 be e8 6c c3 3e be 83 5d 3e
       -0.027689256 -0.4238518 0.38169026 0.21632287
0002d0 ca 7d 78 be f7 02 26 bd 6e 99 24 bd 7c 67 93 3c
       -0.24266735 -0.04053017 -0.040185384 0.017993681
0002e0 f2 fc ee bb d1 38 85 bd c7 c1 7f bc 43 96 ae 3d
       -0.007293337 -0.065049775 -0.015610165 0.08524754
0002f0 36 93 b7 bd 5f a8 b1 bd b4 15 a0 bd 01 47 af 3d
       -0.08963625 -0.08674692 -0.078166395 0.08558465
000300 54 c8 89 3d 74 df 83 3e eb ed 5f bd 48 b6 bf bd
       0.06727663 0.2575642 -0.054670256 -0.09360939
000310 ff 67 a7 be 71 49 a3 3d 9d 02 20 3f 0c 8d f7 3e
       -0.3269653 0.07972992 0.6250399 0.48349798
000320 8a e1 c2 3e e1 56 bc bd 5b 5c 4c be 9d 03 9a be
       0.38062698 -0.09196258 -0.19957106 -0.30080882
000330 0c 64 90 bd 85 ec 98 bf e6 5c e4 be 05 b2 b9 3e
       -0.070503324 -1.194718 -0.44602126 0.3626863
000340 9b a2 1a be 2b f7 2e be c8 38 16 bf df c2 93 3e
       -0.15101092 -0.17086475 -0.5868039 0.28859612
000350 02 a3 29 bf 42 5f bd 3f 6f 8c 4a 3f 3f 64 b5 3e
       -0.66264355 1.4794695 0.79120535 0.35428044
000360 1c ab d4 3e ad 6c 23 be 98 95 74 3e ac f9 dd be
       0.41536796 -0.15959425 0.2388519 -0.43354547
000370 a8 ce 40 3f 57 39 b1 be af de 1e 3f 55 d3 2d bf
       0.7531533 -0.3461406 0.6205854 -0.6790059
000380 a9 e1 8f bf 56 83 92 3f 5d 1a 5a 3e 74 45 7f 3e
       -1.1240741 1.144633 0.2129912 0.24928838
000390 6d 07 13 bf 90 93 a1 bf e7 20 15 3e 62 03 92 3e
       -0.57433206 -1.2623158 0.14563332 0.28518206
0003a0 1d 42 fc be b5 e4 47 3f d7 70 17 be 23 e4 07 3f
       -0.4926919 0.78083354 -0.14789139 0.53082484
0003b0 56 91 ac bc 1f 7a 90 3e c4 06 ef 3d 39 31 67 3d
       -0.021065395 0.2821817 0.11671212 0.056443427
0003c0 4e 09 b6 3e 98 56 57 bf 9a b8 ab 3e 60 a1 b1 be
       0.35553974 -0.84116507 0.33539277 -0.34693432
0003d0 f3 63 a0 3d 07 b2 58 3f 5c 39 55 3f f0 1f 77 be
       0.07831564 0.8464665 0.8329065 -0.24133277
0003e0 bc 4d 56 be 18 f1 4d bd ba 80 bc 3d 9e 1c 5b 3e
       -0.20928091 -0.050278753 0.0920424 0.21397635
0003f0 f6 c0 87 3d ca a3 b5 bc 1e 62 a5 bd 06 7d 80 3d
       0.06628601 -0.022172827 -0.08075355 0.06273846

embedding.bias f4 [64]
000000 c0 a5 82 3f f6 6f 1f 40 c8 af 70 bf 05 93 8d 3d
       1.0206833 2.4912086 -0.9401822 0.069128074
000010 9d f6 3c 3f 71 e1 92 3f 28 6b 31 c0 28 b4 c8 be
       0.738138 1.1475049 -2.7721653 -0.39199948
000020 b9 4b 59 3f 2d 7c a9 bf 8a 1a 5e 3f 3c 2c 81 3f
       0.8488117 -1.324102 0.86759245 1.0091624
000030 52 50 dc be c8 8a 55 c0 a1 71 23 c0 89 ad 40 bf
       -0.4303003 -3.3365955 -2.5538104 -0.75264794
000040 1c cc 28 bf 96 7b 6e bf be c6 38 3f 7a 07 5d 3e
       -0.65936446 -0.9315733 0.72178257 0.21584883
000050 45 d4 52 3f 9b a7 64 bf d0 d7 e5 bf a7 dc 29 bf
       0.8235515 -0.89318246 -1.7956486 -0.66352314
000060 a2 cf 09 40 01 9e 99 3f 03 c1 b4 3f 27 f4 13 40
       2.153298 1.2001344 1.4121403 2.3117769
000070 41 ec d8 be cd af a7 bf 2c 61 bd 3f 1b fe 7f bf
       -0.42367747 -1.3100525 1.479528 -0.9999711
000080 7e 85 7a 3f 59 78 2b c0 ad c7 eb be e4 de ca 3f
       0.9785994 -2.6792204 -0.46050778 1.5849271
000090 2f 40 d6 bf fb 6f e9 bf c5 50 28 bf 23 d9 47 3e
       -1.6738337 -1.8237299 -0.65748245 0.19516425
0000a0 63 d4 81 3e 04 6c 84 bf 04 6b 98 3f 4e 5d 90 3e
       0.2535735 -1.0345464 1.1907659 0.28196186
0000b0 75 60 8a 3f 3f 25 9f bf dc db 42 c0 08 6d ec 3f
       1.0810686 -1.2433242 -3.0446692 1.8470774
0000c0 25 29 15 c0 78 38 f1 be c5 76 f8 3f dc 2a c2 3f
       -2.3306363 -0.47113395 1.9411246 1.516933
0000d0 c7 2c ae bf 13 e7 ad 3f d0 76 66 3f 5a 43 8d 3e
       -1.3607415 1.3586143 0.90025043 0.27590448
0000e0 4d d4 ca 3f 72 76 fe be 7d a3 cc 3e 60 55 f5 3f
       1.5846039 -0.49699742 0.39968482 1.9166679
0000f0 bb db 28 bf 91 bd 35 bf c1 b8 94 bf e3 f7 3c 40
       -0.6596028 -0.7099238 -1.1618882 2.9526298

add_event_embedding.jet_embedding f4 [1, 1, 64]
000000 de 80 b4 3d c1 35 8a bf 3e d6 00 3f 60 e6 0c c0
       0.08813642 -1.0797654 0.5032691 -2.201561
000010 e6 af d4 3f 95 13 8c be 80 e4 99 bf 51 2d d0 3d
       1.661618 -0.2735869 -1.2022858 0.101648934
000020 0a 5c 39 bf 2b 05 ec 3f 96 01 70 bf 8e bc 85 3e
       -0.72406065 1.8439077 -0.9375242 0.26120418
000030 36 e1 b9 be 1f fc b2 c0 74 f1 95 bf ca 86 44 40
       -0.36304635 -5.5932765 -1.1714311 3.0707269
000040 7c 8a 55 bf 53 8d 78 3e ce ec 6c bf 86 45 a7 bf
       -0.83414435 0.24272661 -0.92548835 -1.3068092
000050 7f b6 76 3f c5 8c 0d bf 16 3f b7 c0 d2 d5 eb be
       0.96372217 -0.5529292 -5.726451 -0.4606157
000060 b7 1a 29 bf ff 85 3a bf 40 ed 5c 3f 6b 55 a3 3e
       -0.6605639 -0.7286071 0.86299515 0.31901106
000070 5b fc 72 3e ca 24 7c 3f 0e 01 a0 3e b4 68 31 3f
       0.23729078 0.98493636 0.31250805 0.6930039
000080 16 c0 3e 3f 20 b7 bf bf 22 ef cf 3f f6 93 d1 be
       0.7451185 -1.497776 1.6244853 -0.40933198
000090 28 f0 40 c0 af 80 99 3e 6b 51 c3 3f 1d 24 17 be
       -3.014658 0.2998099 1.5259222 -0.1475987
0000a0 f0 36 af be db 49 ba 3f 20 46 9b 3f 29 6a 92 bf
       -0.342216 1.4553789 1.2130775 -1.1438648
0000b0 73 89 2b 3f c5 de 3c bf f3 1c 3d bf 48 cb 5b 3e
       0.67006606 -0.7377742 -0.738723 0.21464264
0000c0 b1 de 04 3f 23 7a 48 40 3c cf a1 3e 43 7d 70 3f
       0.519023 3.1324546 0.3160342 0.93941134
0000d0 c0 bd ae bd 86 08 2b 3f 5f fc 95 3c 2c d9 00 3f
       -0.08532286 0.6680988 0.018308816 0.5033138
0000e0 c5 42 93 c0 9e 27 97 bd b2 2f 97 3e ea 16 b1 40
       -4.6019006 -0.07380603 0.29528576 5.534047
0000f0 03 a1 63 c0 0a 46 6c bf 48 a3 b9 3e 3c bc 05 40
       -3.5567024 -0.9229437 0.36257386 2.089614

transformer_layers.0.attention.query.weight f4 [64, 64]
000000 82 c3 3e 3a af 77 f3 3a 12 41 28 bd 18 6c f2 bc
       0.0007277058 0.0018575097 -0.04107768 -0.029592559
000010 dc c2 48 3d b4 43 bf 3d bc 13 c8 bc 3b fe f2 3d
       0.049013957 0.09339085 -0.024423473 0.11864897
000020 74 88 3f 3d b7 3e d3 bc 5f c3 0c bd 6e f8 08 bd
       0.04676099 -0.02578674 -0.034366008 -0.033440046
000030 02 ee e4 3d 6e 21 28 3d 25 ff fc 3c 21 25 07 3c
       0.11178209 0.041047506 0.030883381 0.008248598
000040 93 d7 ba 3d 22 ab 34 bd d9 b3 1a bd ea 2d d1 bd
       0.09123149 -0.044108517 -0.037769172 -0.102138355
000050 bb 27 b1 bb e3 41 f8 3d a2 c3 51 3d c6 6e cc 3c
       -0.0054063476 0.12121942 0.05121196 0.024955165
000060 42 6b 3e bd 2b 1a 29 bd 22 76 cc bb 7a a7 52 be
       -0.046489008 -0.04128472 -0.0062396685 -0.205717
000070 54 78 9e bc de 11 c1 3d 0d 1e fc 3c 75 a3 36 3c
       -0.019344486 0.09427236 0.030776048 0.01114737
000080 83 31 58 be e2 3b 57 3c 2b 69 8e bd 40 a7 cd bd
       -0.21112637 0.013136836 -0.06953653 -0.10041666
000090 61 0a b7 bc 42 07 a6 bc 21 32 a2 bd 5a f7 47 3d
       -0.022343816 -0.020267133 -0.079197176 0.048819877
0000a0 8f 68 57 3d d4 0e cd bc e3 bf d3 bb 2f 74 28 3e
       0.05258995 -0.025031485 -0.0064620837 0.1645057
0000b0 04 c7 8f 3d 85 cb 0b bb 17 3e b2 3d 39 92 ef bc
       0.07020381 -0.0021331024 0.08703249 -0.02924453
0000c0 a3 1e d5 bc 93 59 81 bc d3 0f a6 bd ad db d5 3c
       -0.026015585 -0.015789783 -0.08108487 0.026105726
0000d0 31 3f 1f 3e 6e 3a 85 3d f3 cc 02 3d 80 06 0e bd
       0.1555145 0.06505285 0.031933736 -0.034674168
0000e0 63 11 c0 bd 91 32 88 bd 45 f3 ae bd eb 87 17 3c
       -0.09378316 -0.0665027 -0.08542494 0.009248714
0000f0 b6 4a ce 3c 8d 2f 69 bd 11 f6 55 3c ae b7 dc 3d
       0.02518211 -0.056930114 0.013059155 0.107772216
000100 cf f6 a0 3d 3b 60 83 bd 65 eb bb bc 4c 67 14 3d
       0.07859575 -0.06414839 -0.022939393 0.036231324
000110 96 ec 9a 3d e3 bf 30 3d 88 f4 0b bc eb 5d 52 3d
       0.075646564 0.043151747 -0.0085421875 0.0513591
000120 f0 ce a7 bd da 06 b0 bc fc 5f 2b 3d a0 21 7b 3d
       -0.08193767 -0.021487642 0.041839585 0.061311364
000130 9e de b3 3d f8 05 76 3d f3 7c 16 3d 60 4b 45 3d
       0.08782695 0.060064286 0.036740255 0.048167586
000140 32 ad 0d 3e 23 b5 76 bc fa f4 89 3d cd be 9a 3d
       0.138356 -0.015057835 0.06736179 0.075559236
000150 da ab 2a 3d 5d 48 fa 3d 8a 0f 1c bc dc 51 96 3d
       0.041667797 0.122208335 -0.009525189 0.07339832
000160 06 99 86 bd 02 43 3a 3d 62 9a a5 3d 53 0d f8 3c
       -0.06572156 0.04547406 0.08086087 0.030279791
000170 5b e1 50 3d f9 da b7 3b e8 86 09 3e 49 fb c3 bc
       0.050996166 0.0056108204 0.13430369 -0.023923533
000180 12 6c f6 bc ca 0d 29 3d 09 31 00 bd 94 bb f2 bd
       -0.030080829 0.041272916 -0.031296764 -0.11852184
000190 a0 14 8f bc 71 1a 22 be c6 1a 96 bd df 63 41 ba
       -0.01746589 -0.15830399 -0.073293254 -0.00073772477
0001a0 3f 32 8b bd 58 28 83 bd cf fb 45 bd 41 d2 d6 bc
       -0.06796693 -0.06404179 -0.048335847 -0.026223304
0001b0 fc e3 c1 3d 67 22 95 bd bc b0 bc bd 9a 9d 07 3c
       0.09467313 -0.07281952 -0.09213397 0.008277321
0001c0 95 d5 9e bc 6c f3 37 3c be 2c 33 bb 3c 79 e6 ba
       -0.019388953 0.01122747 -0.00273399 -0.0017583738
0001d0 1a 99 21 bd 6e 65 56 3a 0c 53 18 bc f6 1f 15 bc
       -0.03945265 0.00081785663 -0.009297144 -0.009101858
0001e0 22 eb 87 bb 32 47 b0 bd f1 7c 3b 3c 77 e0 a1 bd
       -0.004147903 -0.086073294 0.011443363 -0.079041414
0001f0 b3 d5 58 3c a7 dd 96 bd dc f9 8f bd 6e 2b bc 3c
       0.013234544 -0.073664956 -0.07030079 0.022969928
000200 77 2d 5b 3d 51 8d 5f bd 16 2b 80 bd a8 77 85 bd
       0.053510156 -0.05457813 -0.06258218 -0.06516963
000210 f6 ea 10 bd 60 68 09 3d c8 4d fc 3a c0 7e 0d 3c
       -0.035380326 0.033546805 0.0019249255 0.008636177
000220 ae b3 af 3d cb 9c ac bd 52 28 68 3d f3 5e 9c bd
       0.08579193 -0.084283434 0.056679077 -0.076352976
000230 2f d5 41 bc 4f da 9e bc fc 05 a7 3d 80 9e 91 bc
       -0.011830612 -0.019391207 0.08155438 -0.017775774
000240 e5 27 d8 3c a6 28 0e 3e 4d 3c 90 3c ad cc 3b 3d
       0.02638621 0.13882694 0.017606879 0.04584949
000250 ca 48 4f 3d a8 a7 f2 bd d3 c8 57 3d 72 30 eb bd
       0.050606526 -0.11848384 0.052681755 -0.114838496
000260 bf 8d 0b bd ba c6 48 bd b6 0c 46 3d b7 b9 0f bd
       -0.034070726 -0.049017645 0.048351966 -0.03508922
000270 2b 0c 4b 3a 56 37 91 3c 2f 82 b8 3c 44 79 be bc
       0.00077456486 0.017726582 0.022523014 -0.023251183
000280 04 5a f6 3c b6 9d 3e 3e cf f0 35 3e d0 04 50 3d
       0.03007222 0.1861485 0.17767642 0.05078584
000290 0e 2a 43 bc c6 0e 99 3d d2 1a 06 bd fe fd b2 3d
       -0.011911882 0.07473521 -0.03274042 0.087398514
0002a0 13 ba 38 bd a7 29 4d bd 53 0d 68 3d e9 2d f7 bc
       -0.04509933 -0.05008855 0.056653332 -0.030173259
0002b0 92 98 96 bc d3 4a f0 3b 9d 1d ac bc 41 16 5e 3d
       -0.018383298 0.0073331385 -0.021010214 0.05422044
0002c0 60 08 d5 3b 87 ae 80 bc 2e bc 5c bd 50 7d b1 3d
       0.0065012425 -0.015708221 -0.0538904 0.086664796
0002d0 36 21 80 bc ae 60 8b 3c e8 c7 94 bd 40 cc 70 3d
       -0.015640836 0.017013874 -0.072646916 0.058788538
0002e0 9a 4f c7 bc 53 2f 0b 3d b4 2f 8b 3d 2b ac e1 3d
       -0.02432995 0.03398068 0.06796208 0.110191666
0002f0 5c ff f2 bc b6 17 99 bd 54 52 87 3d 19 5a 16 3d
       -0.02966278 -0.074752256 0.066075 0.036707018
000300 3e 3d 2c 3d 43 62 17 bd 7c 7f f1 bc f6 13 88 bc
       0.042050593 -0.036958944 -0.029479735 -0.01661108
000310 ca 60 5e 3d b5 9b 3c 3d 26 41 59 bd 4a 81 15 3d
       0.054291524 0.04604693 -0.053040646 0.036500253
000320 7f 1c e4 3c 58 f7 22 bd f9 0d 1b bc 14 c6 fb bc
       0.02784562 -0.039786667 -0.009463781 -0.0307341
000330 2b f6 ce bd f1 8a 55 bc 5e 6e 13 bc b0 4b a6 bd
       -0.101055466 -0.0130336145 -0.008998482 -0.08119905
000340 03 59 14 3c 2b 10 df 3c 70 84 7c bd 4e 26 8e bc
       0.009054425 0.02722939 -0.06164974 -0.01735225
000350 87 d5 55 3d d4 3a e9 3b d3 c5 ff 3c df 58 fe bc
       0.05220559 0.0071176086 0.03122226 -0.031048236
000360 bd 38 c3 3c b8 c1 2c 3d 09 bb 4b 3d 54 e1 3a 3c
       0.023830766 0.042176932 0.049738917 0.0114062615
000370 5c c6 56 3d fc ce 8e 3d d8 e2 05 3e 8c 1c 2b bd
       0.052435264 0.06973073 0.13074815 -0.04177527
000380 ef 9b ea 3d e1 91 95 bd 84 b2 d8 bc d0 1c 06 be
       0.11455523 -0.07303215 -0.02645231 -0.13096929
000390 6e 42 51 bb 34 b9 48 3e 21 b5 a6 3d 55 aa c0 bd
       -0.0031930464 0.196019 0.08140016 -0.09407488
0003a0 1a 29 da bd 52 03 5e 3d ea 3e 06 3d ba 23 ee 3b
       -0.10652371 0.054202385 0.032774843 0.0072674425
0003b0 e0 fa e2 3d 85 10 b0 bd 1b ca 0d 3d 44 5f fe 3c
       0.11083007 -0.08596901 0.03461657 0.031051286
0003c0 1f 39 a6 bc f4 93 3b 3d 17 ab 2e bd 6f d4 87 bd
       -0.02029091 0.045795396 -0.042643633 -0.06632315
0003d0 9f c7 96 bd 8d aa 81 3d 31 e9 9d 3c 93 0e 26 bd
       -0.073622935 0.06331358 0.019276233 -0.040541243
0003e0 ba 35 1e bd b4 6a 5d bd 6b eb 79 bd 6d 66 a2 bd
       -0.038625456 -0.05405684 -0.061015528 -0.079296924
0003f0 50 cf b3 3c 8b fa 99 3d b2 a8 d3 3c e8 8c f3 bc
       0.02194944 0.075184904 0.025837276 -0.029730275

transformer_layers.0.attention.query.bias f4 [64]
000000 80 65 eb 3c 2f 9b 70 3c b9 1c c1 bc 8f 07 8f bc
       0.028734922 0.014685436 -0.023573266 -0.017459659
000010 f5 1b d2 bc d1 a4 aa 3c 73 f8 ab bc cc 4e 5f bc
       -0.025648097 0.020830544 -0.020992493 -0.0136296265
000020 c9 b8 9b 3c c5 da 3b ba 81 4f 83 bc 38 e1 a1 3c
       0.01900901 -0.0007166083 -0.016029121 0.019760713
000030 30 7f 3f bc a0 47 b4 3c 00 92 87 3c a3 c1 b2 3c
       -0.011688039 0.02200681 0.01654911 0.021820849
000040 12 ab 35 bc 81 c1 b8 3c 81 39 4b bc 47 84 72 3c
       -0.01108815 0.022553207 -0.012403847 0.014802045
000050 44 93 b0 3b ac ce c6 3c 77 06 c7 bc e4 1b db bc
       0.005388649 0.02426847 -0.024295075 -0.026746698
000060 f3 41 80 bf f1 cd 52 3c d5 24 c4 bc e0 e4 80 bc
       -1.0020126 0.012866483 -0.023943344 -0.015734136
000070 c4 5c 33 3c 63 b8 ef bc 36 09 c4 3c f7 b4 8b bc
       0.01094741 -0.029262727 0.023930173 -0.017054064
000080 73 9e cf bc c8 d2 af 3c 8b 6d ad bc be fb 96 bc
       -0.02534411 0.021462813 -0.021170398 -0.018430587
000090 5a 03 72 3c e1 4f 8f bf 92 10 ad bc 7a d4 9b bc
       0.014771307 -1.1196252 -0.021126065 -0.019022215
0000a0 17 95 e1 3c f5 76 a9 3c be 96 97 3c b6 6f b6 3c
       0.027536912 0.020686606 0.018504497 0.022270065
0000b0 ff 7e a7 3c c6 c5 c3 be 47 0f b5 bc 58 36 62 3c
       0.020446299 -0.38236827 -0.022102011 0.013806902
0000c0 cd bf 95 bb 76 ac ab bc 0e 6f 8e bc b6 72 20 bc
       -0.0045699836 -0.02095626 -0.01738694 -0.009792974
0000d0 17 ea c4 bc a9 96 a8 3c ec e3 a3 3b f9 c2 a3 bc
       -0.024037404 0.020579653 0.0050015356 -0.019990431
0000e0 79 aa ba bc 12 65 98 bb 68 20 95 3c 3e 4a 9b bc
       -0.022786366 -0.0046507204 0.018203929 -0.0189563
0000f0 dd a6 39 3c 7e 9a 35 3b a0 c8 93 3c 8a a4 ca bb
       0.011331287 0.0027710493 0.018040001 -0.0061841654

transformer_layers.0.attention.key.weight f4 [64, 64]
000000 8f b6 ae 3b c1 a2 78 3d 02 02 b7 bc ff 1d 44 bd
       0.0053318213 0.06070209 -0.022339825 -0.04788017
000010 18 01 33 3e e2 a0 11 3e 2d e3 8d 3c d8 53 5f bd
       0.17480886 0.14221528 0.01732024 -0.05452332
000020 d9 33 d6 bd fe 26 b4 ba 2e 75 5e 3c b8 2c 9a bc
       -0.10459108 -0.0013744531 0.0135777425 -0.018820152
000030 56 97 a8 be 7d 75 94 bd 0c b6 ca bc 5d bd 57 bd
       -0.3292796 -0.072489716 -0.02474501 -0.052670825
000040 a1 cc 42 3d e5 b6 59 3b f6 c8 41 3d 79 f2 cb 3d
       0.04755843 0.0033220586 0.047310792 0.09958357
000050 1c a4 bc 3d 2f 47 b9 3d 74 a6 d4 3d 19 2a 46 3d
       0.09210989 0.0904678 0.10383311 0.04837999
000060 b3 77 8c 3d 7c e0 ed 3d 7d d5 c6 bd fe 63 f1 bc
       0.06858768 0.116150826 -0.097086884 -0.029466625
000070 59 09 39 3d 40 62 14 bd 14 e4 75 3d 49 24 4e 3d
       0.04517493 -0.03622651 0.060031965 0.050327573
000080 3a ad 57 3d 54 86 99 bd 54 ea 72 bd 62 d4 96 3c
       0.052655436 -0.07496324 -0.059305504 0.018411819
000090 ca 07 a1 bd 59 c9 69 3e d7 f3 5c 3d 21 0b 8c bc
       -0.07862814 0.22830714 0.05394348 -0.01709515
0000a0 55 fd 5f 3c f8 10 8e 3c d9 34 f4 bc 8c 73 63 bd
       0.013671239 0.017342076 -0.029810356 -0.055530116
0000b0 1a 8e f9 bb 32 77 ba 3d be 80 31 be d8 50 ec bc
       -0.007615817 0.09104766 -0.17334267 -0.028847143
0000c0 40 6f 0b bd 08 19 b5 bc 10 7e 9a bc ac e3 63 bc
       -0.034041643 -0.022106662 -0.01885894 -0.013909262
0000d0 d0 3a 2e be 1c 35 7e 3d c9 cd 9f 3d 9c 52 80 3d
       -0.17014623 0.062062368 0.07802922 0.062657565
0000e0 8a 44 ab bd 50 da b0 bc 81 97 a6 bd 17 56 1a 3d
       -0.08362682 -0.021588475 -0.08134366 0.037679758
0000f0 85 70 3f 3c d1 4a bd bc 37 48 c8 3d 55 8f a6 3d
       0.011684542 -0.023106964 0.09779399 0.08132807
000100 19 34 b9 bd f9 43 8a bd c8 96 be 3c ca 04 12 3d
       -0.0904314 -0.06751246 0.023265257 0.0356491
000110 fa 7b 1b 3d 2a 5e f3 bc 48 e6 e0 bc 97 4a 89 3d
       0.03796003 -0.029707987 -0.027453557 0.0670368
000120 7a 21 0e 3d e8 8c 60 3d ce 74 14 3d 1e 3f bc 3b
       0.034699894 0.05482188 0.036244206 0.005744829
000130 d5 e4 77 3c 3f 3a 86 bd f9 d1 15 bd c8 e1 fd bb
       0.015130241 -0.06554078 -0.0365772 -0.0077478625
000140 2e 8b 96 3d 48 ba f6 bd b6 83 d5 3a 77 10 1a 3d
       0.07350765 -0.12047249 0.0016289863 0.03761336
000150 77 ed 8d bd 6e 61 a7 bd 53 56 7b 3c 5c d6 cd 3d
       -0.069300584 -0.0817288 0.0153404055 0.100506514
000160 d4 4d 04 3c c8 75 cb 3c df 63 5d bc 06 f1 2f 3d
       0.008075196 0.024836436 -0.013512581 0.042954467
000170 40 1f 8a bd c4 e6 a2 3c 9e c0 b2 bd da d0 81 bd
       -0.06744242 0.019885428 -0.08728145 -0.063386634
000180 76 94 17 bc 0c 7f 99 3d 83 85 1f 3d e5 af 4e 3e
       -0.009251704 0.074949354 0.038945686 0.20184286
000190 4e d4 9a bd f9 45 48 3e 60 37 30 3d cf e8 04 be
       -0.07560025 0.19557942 0.04302156 -0.12979434
0001a0 c2 cd 92 bd b7 91 80 3d eb c4 70 3c 58 b3 53 bd
       -0.071681514 0.06277793 0.014695386 -0.051684707
0001b0 9d 21 4e 3d 17 f5 9f bd fa 0b fc 3d 66 c0 f7 3c
       0.050325025 -0.07810419 0.12306972 0.03024311
0001c0 14 0d ae 3d 51 60 c5 bc 6c 27 e4 3d 80 66 0a 3d
       0.08498588 -0.024093779 0.111403316 0.033789158
0001d0 15 9d 1f 3e 5a fb fd bc a7 a5 96 3d 42 73 65 3d
       0.15587266 -0.031003643 0.073558144 0.05601812
0001e0 fc f6 b3 bb d2 a5 cb 3d c1 48 40 3c 9b b7 5f 3d
       -0.0054920893 0.09943737 0.011736096 0.05461846
0001f0 ac 44 ae 3d c5 de 8c bc a9 6d b8 3d e2 61 14 3b
       0.08509192 -0.017196069 0.09005291 0.002264135
000200 71 ca b3 bd ec bf 31 3c ca 74 4c 3d 0b 98 d3 bc
       -0.08778847 0.01084898 0.049916066 -0.025829336
000210 56 c2 10 3d 97 78 a2 3d 8f bb ef 3c d4 3f 29 bd
       0.035341583 0.07933157 0.02926424 -0.041320637
000220 47 29 f7 bd 42 2b 0c 3e 80 04 6a 3d 1e 7b 03 3e
       -0.1206842 0.13688377 0.057133198 0.12839934
000230 44 10 4d be 0e ce 88 3c 10 2a 28 3d 18 4d 29 3d
       -0.20025736 0.016699817 0.04105574 0.041333288
000240 c7 2d 39 3e df bb af bc 4c 49 8f 3d 6b 6d 9a bd
       0.18083869 -0.021451889 0.06996402 -0.07540401
000250 4c 80 30 bc 18 24 d0 3d 0b cc 78 3d da 5f b1 3c
       -0.010772776 0.10163134 0.060741466 0.02165215
000260 5f 82 22 3d 9a 3b f0 bd d4 c9 ff bd 4a 63 4c be
       0.039675113 -0.11730118 -0.124896675 -0.19959751
000270 ac f8 15 3d ad e6 f0 3d 82 0f 32 bd e2 26 bf 3c
       0.036614105 0.11762748 -0.04347182 0.02333397
000280 63 ea 4e 3e 00 32 49 bd ef 0f b5 3c f3 a6 01 3d
       0.20206599 -0.04911995 0.022102324 0.031653356
000290 42 98 37 3d 72 b1 0f 3d e2 7d 9d bd e3 76 0d 3e
       0.04482294 0.035081334 -0.07690026 0.13814883
0002a0 ec 93 8b 3c 87 7b 5e 3b 9d 5c 03 3e 53 0f 02 3d
       0.017038308 0.003394814 0.12828298 0.031752896
0002b0 e3 3b 05 bc 27 ad c3 bd f2 fa b5 3d 82 5a 77 bd
       -0.008131954 -0.095545106 0.08885755 -0.06038905
0002c0 f4 79 3e bd 68 04 b1 3b 8d 73 51 bd e4 cc 43 bd
       -0.046503022 0.0054021366 -0.05113559 -0.04780282
0002d0 8b 50 8c 3d 24 51 6c 3c 1c 94 47 3d b9 fc e1 bc
       0.068513 0.014423642 0.048725232 -0.027586328
0002e0 ec 13 1b bd a2 c1 e9 bc af bb 91 3b 43 37 1f 3e
       -0.037860796 -0.028534714 0.0044474225 0.15548424
0002f0 17 53 f6 bc 98 b8 47 3b 39 b9 62 3e e0 f6 76 bc
       -0.030068917 0.0030475017 0.2214097 -0.015073508
000300 9b 21 0c bd d9 dd 9a 3c 3f 42 c9 bd 4a 2e b0 3d
       -0.034211736 0.018904613 -0.098270886 0.08602579
000310 11 27 27 bd 43 6f 48 3e 95 b8 60 bd 77 66 cd 3d
       -0.04080874 0.19573693 -0.05486353 0.10029309
000320 be a0 0a 3d cf d9 f6 bd 1e 11 ad 3c 47 35 c7 bc
       0.033844702 -0.120532624 0.021126326 -0.024317397
000330 16 8f b9 be e5 1e cd bd a3 bd 85 3d 58 b3 e8 3c
       -0.36241978 -0.10015658 0.06530311 0.02840583
000340 48 dd 11 bd 02 b2 56 3d 5e ee 6c bd 31 fd 01 be
       -0.03561142 0.052415855 -0.057844512 -0.12694241
000350 0a 22 e6 3d c6 46 4c 3c 32 86 f5 3c 3c 80 0a 3b
       0.11236961 0.012468046 0.029971216 0.0021133563
000360 b3 08 6a bb 59 14 b2 bc 57 c3 61 bc 0e d0 e7 bd
       -0.0035710752 -0.021738218 -0.013779483 -0.1131898
000370 ff 5e 30 3d 7a 12 5e bc e9 f6 90 bd 6d ab 3a 3d
       0.043059345 -0.01355421 -0.070783444 0.04557364
000380 e4 45 a0 3d b0 96 6a 3d 72 23 a0 3c 5d a4 a5 bd
       0.078258306 0.057272613 0.019548152 -0.080879904
000390 34 00 df 3d 53 4b 66 be 42 e3 0c 3d 70 af 0d bd
       0.108887106 -0.22489671 0.034396417 -0.03459114
0003a0 f8 c4 40 bb dd ad 5f bc 50 bc 31 3d 09 3c 58 3c
       -0.0029414278 -0.013652292 0.04339248 0.013197907
0003b0 d6 c5 d9 bb 75 9b 9f 3d 6c ed 1f 3e a9 4e 55 3b
       -0.0066458983 0.07793323 0.15617913 0.0032548106
0003c0 62 b2 bc bd fe d1 d2 3d 64 b5 6d bc 1a 91 a1 bd
       -0.09213711 0.10293959 -0.014508579 -0.07889004
0003d0 bd 83 ad 3d 5e 86 8d 3d 83 93 f9 bc eb 27 b8 bd
       0.08472393 0.06910394 -0.030465847 -0.08991989
0003e0 29 0a 7e bd e2 bd ba bd 6e b7 1d bc 8e 25 a6 bd
       -0.06202141 -0.091182485 -0.009626253 -0.08112632
0003f0 0a e8 99 3b 46 1a 93 3d 78 74 b4 3b 53 d5 01 bd
       0.0046968507 0.07182746 0.005507048 -0.031697582

transformer_layers.0.attention.key.bias f4 [64]
000000 a1 ba 25 3d 39 86 b0 3d 42 32 cf bd 52 ca b2 bd
       0.040461186 0.08619351 -0.10117008 -0.08729996
000010 ff b9 cd bd c0 c8 62 bd 69 8d 4b 3d e9 f2 6c bd
       -0.100452416 -0.05536723 0.049695406 -0.057848845
000020 b6 20 4b 3d 8d c0 f7 3d d5 b9 d1 bd d6 91 4d bc
       0.049591742 0.12097273 -0.10240523 -0.012546977
000030 e3 a8 9f bc 3c 0d ac bd a5 6e 94 bd 55 41 ed 3c
       -0.019489711 -0.08400962 -0.07247666 0.028961817
000040 91 19 b8 bd 30 37 33 bc 24 90 b4 bd 0c 93 ea bd
       -0.089892514 -0.010938451 -0.08816555 -0.11453828
000050 9d c7 1c bc 25 27 97 bd 1a 15 ea 3d d5 6c 86 3c
       -0.009569076 -0.07380513 0.11429806 0.016409317
000060 82 a1 48 3d 23 af e5 bd 74 5d e1 3d 67 c4 36 bd
       0.04898215 -0.11215045 0.11004153 -0.044620898
000070 67 7b 22 3d dd 50 b1 3d bb 5c 69 bd 68 03 df bd
       0.039668467 0.086580016 -0.0569732 -0.108893216
000080 22 97 12 3c 9f b7 e0 bd 71 67 b4 3d ce 8a 86 bd
       0.008947166 -0.10972523 0.088087924 -0.06569444
000090 29 9e a1 3c 78 e2 72 3c 53 8a 79 3d 91 5e 21 bd
       0.019728737 0.014824502 0.060922932 -0.039396826
0000a0 4b 70 a2 bd 76 cb de 3c b2 75 f0 3d 99 68 3e bd
       -0.079315744 0.027196627 0.117411986 -0.04648647
0000b0 de 21 90 3d bd 3b 0a 3e 8c 75 36 bc 3e 86 70 bd
       0.0703771 0.13499351 -0.011136424 -0.058721773
0000c0 2c 29 d2 3d 28 76 aa bc 05 02 67 3c e5 be bd 3d
       0.10261759 -0.020808294 0.014099603 0.09264926
0000d0 2a b5 e5 3d b4 8e dc 3d 66 c3 81 bc c7 1b fc bd
       0.11216195 0.10769406 -0.015840244 -0.123099856
0000e0 b1 84 83 3d 5b cf d8 bd 32 90 41 bc 82 5f cf 3d
       0.06421793 -0.10586425 -0.011814164 0.101256385
0000f0 9d 6e 36 bd 2c 8e 04 3d ee 0a ae bd 74 51 03 3c
       -0.044539083 0.03236215 -0.084981784 0.008015025

transformer_layers.0.attention.value.weight f4 [64, 64]
000000 4f 7f 8b 3d 66 98 b6 3d 59 3f 21 be c1 f9 c2 bc
       0.068113916 0.089157864 -0.15746821 -0.023800733
000010 2a 85 23 3e 1b fc bd 3d 6a 19 bd be c1 da a7 3d
       0.15968767 0.09276601 -0.36933452 0.08196021
000020 c4 19 c4 bd 2f c3 7b 3c 4e 6e 55 bf 7f 1c 20 3e
       -0.09575227 0.01536636 -0.83371437 0.1563587
000030 d7 c5 e8 bd bf a5 86 3d 29 04 24 be 26 8b cd bd
       -0.1136586 0.06574582 -0.16017212 -0.10036306
000040 4f d4 83 3f 2e 33 9f bf 1f 16 7c bf 67 3f a3 3d
       1.0299166 -1.2437494 -0.98471254 0.079710774
000050 44 a7 13 3f 2f e5 2d be 01 d1 4f 3d 05 4e af 3e
       0.576771 -0.16981958 0.05073643 0.34239212
000060 b4 6c 08 3f 43 a0 1d bd 08 c2 e6 3e 61 9d 45 3e
       0.5329087 -0.038482916 0.4506991 0.19298317
000070 2d 00 bb 3f 22 b7 1b bd f3 e5 c4 3e 2f bf d9 bc
       1.4609429 -0.038016446 0.38456687 -0.026580421
000080 74 52 dc bc fe a7 1d bc c6 74 9d 3d f5 f6 b1 3d
       -0.026894785 -0.009622572 0.076882884 0.086896814
000090 44 cd 78 3d 6d b2 ab 3c cf d9 ef bd 49 86 a4 bd
       0.06074263 0.020959103 -0.117114656 -0.08033425
0000a0 81 3e cf bd e6 a2 7d bf fe aa 2d bd ff d9 aa 3d
       -0.101193435 -0.9907669 -0.0423994 0.08342361
0000b0 2f 0a d1 bd 12 71 32 bc c8 f3 b7 bd 1d 85 a2 3d
       -0.102070205 -0.010891216 -0.089820445 0.079355456
0000c0 22 4b 7c bf c5 85 a1 3c 4e a7 70 3e 6d 4c 82 3f
       -0.98552144 0.019717107 0.23501322 1.0179573
0000d0 fb c4 d3 bd 62 49 0c bf 6c 9d 00 be f8 52 31 3e
       -0.103403054 -0.54799473 -0.12560052 0.17316806
0000e0 e7 e0 ce bd e3 3d a7 3f 28 2c ff 3b 39 f2 bf be
       -0.101014905 1.3065761 0.0077872463 -0.3748949
0000f0 b9 6f a3 bd 17 3f 07 bc 53 ca 2e be 95 f7 a3 3e
       -0.07980294 -0.008254788 -0.17069368 0.32024828
000100 00 68 d2 bc d6 83 32 3d 38 20 0d bd a6 70 55 3d
       -0.025684357 0.04358276 -0.034454554 0.052109383
000110 cb 55 e6 bd d9 03 02 3d c0 a0 2b be 80 dd 37 3d
       -0.112468325 0.03174195 -0.1676054 0.044888973
000120 b5 18 bc 3d 5e 4c 6f bd c3 f8 a5 3f bb b5 25 bf
       0.091844 -0.05842244 1.2966541 -0.64730424
000130 2e 57 80 bb 04 a5 3e bd e4 b3 2d 3d 76 96 65 be
       -0.0039166426 -0.04654409 0.042407885 -0.22420678
000140 66 de 3e bf f7 4f 28 3f 23 59 c1 3f 91 67 15 bd
       -0.74558103 0.65747017 1.5105327 -0.03647572
000150 70 98 a8 bf 4f f9 3e bd 9b 2d 4b be 00 3e 79 3d
       -1.317152 -0.046624478 -0.19841616 0.060850143
000160 37 90 62 3e 5f 18 d2 3c f7 3c 56 3c 75 83 2f 3c
       0.22125326 0.025646387 0.013076059 0.010712494
000170 2e d5 a4 bf 42 73 33 3d 9c 0f 89 be 59 80 66 3d
       -1.2877557 0.04381109 -0.26769722 0.056274746
000180 88 ab 00 bd c7 ca 23 bd d0 28 6f bd a1 bf ed bb
       -0.031413585 -0.039988305 -0.05838853 -0.00725551
000190 fd 97 47 bd 25 97 82 bc 09 99 0c 3b dc d7 8a 3c
       -0.04872893 -0.015941212 0.002145352 0.016948633
0001a0 46 9c b8 bc 26 02 24 3f 73 28 f4 bc 01 10 2a bd
       -0.022535454 0.6406578 -0.029804444 -0.04151917
0001b0 c9 5f e0 bd c4 19 0b bd b3 71 e4 3a d1 93 d1 3c
       -0.109557696 -0.03396012 0.0017428905 0.02558318
0001c0 0b 75 40 3f 10 17 f7 3e 14 43 57 bd ce d0 9b bf
       0.75178593 0.48259783 -0.052554205 -1.2173097
0001d0 2d ff 58 bb 3e 8f c2 3f b2 c6 00 3e 6a d3 3c bd
       -0.003311108 1.5199964 0.12575796 -0.046100058
0001e0 f4 f7 bd 3f 08 43 9b bf 0d cc 58 3c 0a c7 15 3f
       1.4841294 -1.2129831 0.013232243 0.58506835
0001f0 3e 64 1c bd af b7 8a 3c 2b 9f 96 bd fe e2 a5 3d
       -0.038181536 0.01693329 -0.07354578 0.08099936
000200 16 ac 06 3a 7c a3 9a 3c 0f f1 16 bd db e1 34 3b
       0.0005137337 0.018876784 -0.036850985 0.002760044
000210 85 19 59 3d 79 35 9e 3c d3 c6 9d be c3 b2 07 bc
       0.053002853 0.019312607 -0.30815753 -0.008282366
000220 0b 54 c4 3e 49 e3 36 3d c9 d6 ab bd 9f ba 38 3f
       0.3834537 0.04465035 -0.083905764 0.7215976
000230 aa 7c d4 3c 8d bc 18 3b 52 41 b0 bd c5 79 c8 be
       0.02593835 0.0023305744 -0.08606209 -0.39155403
000240 0a 25 14 bf 81 8c 14 3f 3a e8 38 be e0 39 12 bd
       -0.5786902 0.5802689 -0.18057337 -0.035699725
000250 0f a7 48 3e bd 68 5f bd d4 1d 29 be 74 54 fc be
       0.19594978 -0.054543246 -0.16515285 -0.49283183
000260 2a 6a 51 3e 61 c8 1e bd 8f 3b aa 3e f9 97 0a 3e
       0.20450655 -0.038765315 0.33248565 0.13534535
000270 9d 05 31 bf 2b 7a 78 bd 8f 6d 6a 3e 6f cf 0b 3c
       -0.6914919 -0.060663383 0.22893356 0.008533343
000280 4e f2 65 3c 62 11 50 bd ea b4 16 3d 5f d8 6a 3d
       0.014034821 -0.050797828 0.036793627 0.057335254
000290 20 ad d8 bc 08 7f 8e 3d 3b be cc 3b ef 45 8b bd
       -0.02644974 0.06957823 0.006248263 -0.06800448
0002a0 87 63 af bd d8 db 4e be e3 87 b8 bd d6 c4 c2 bb
       -0.08563905 -0.20201051 -0.09010293 -0.005943875
0002b0 07 3c 05 bd 49 04 55 bd 2b 13 e6 3c 25 e9 46 b9
       -0.03252795 -0.05200604 0.028085312 -0.00018969605
0002c0 0d d2 81 be 60 b1 92 be 0f 5a 06 3f 03 b7 87 3e
       -0.2535557 -0.2865095 0.5248117 0.26506814
0002d0 f0 7c 9b bd cc cd e7 bd 57 42 c2 3e 30 f6 10 3d
       -0.07592189 -0.113185495 0.37941238 0.035391033
0002e0 14 7f 11 be f7 61 d9 be b2 69 04 3d 2f 3e 3c bd
       -0.14208633 -0.42457554 0.03232736 -0.04595774
0002f0 07 97 80 3d 50 07 55 bc 97 17 67 be f1 31 62 3e
       0.06278806 -0.013002232 -0.22567593 0.22089364
000300 3b 0f 7d 3c 27 8c 3e 3d 35 66 1a bd 75 44 6e bc
       0.015445526 0.04652038 -0.03769513 -0.014542689
000310 aa e8 93 bc 2e 0b 31 3d 6a 96 c6 bd 0c 23 39 3d
       -0.018055279 0.043223552 -0.09696658 0.04519944
000320 db b9 94 be 96 e4 98 3c 41 b5 eb be 2e 4e c3 3e
       -0.29048046 0.018663686 -0.46036723 0.38145584
000330 dc 31 6d 3d 70 14 5e 3c af d2 a7 3d 5c b4 5a bd
       0.057908878 0.013554677 0.081944816 -0.05339466
000340 45 68 17 3e ca af 09 be 70 bf 37 bf 90 bd 49 bc
       0.1478587 -0.13445964 -0.71776485 -0.012313262
000350 74 ae e9 bc a2 f0 5e bd bd d6 88 bd 66 c3 cd 3e
       -0.028525569 -0.054428704 -0.06681583 0.4018814
000360 b9 6c ff 3d f7 2b cb bc b3 ef 21 3c 12 25 79 3d
       0.12471909 -0.024801238 0.009883809 0.06082637
000370 23 28 1b 3e 88 5e 97 bc 39 9a 6f bb 8a 3a d4 bc
       0.1515203 -0.018477693 -0.003656043 -0.02590682
000380 87 4b 55 3c d1 f4 cb 38 52 d5 41 3d 7f 52 55 3d
       0.013018495 9.725395e-05 0.04732258 0.052080628
000390 62 ed 29 bd 7d 67 79 3d 9d 1d 37 3d bd ba a2 bc
       -0.04148615 0.06088971 0.044705976 -0.019864434
0003a0 e5 16 30 bc 21 3d 86 bf f5 6e 2a bd 5a 88 d1 bc
       -0.010747646 -1.0487405 -0.041609723 -0.025577713
0003b0 94 c8 a4 bd bc a8 37 bd 07 0d d3 3b 46 71 4c bd
       -0.0804607 -0.044838652 0.006440762 -0.049912713
0003c0 65 70 e8 bd 2e f7 04 3e 5f 7e de 3c d7 f8 09 3e
       -0.113495626 0.12984917 0.027159868 0.13473831
0003d0 20 df 37 bc 5d 98 92 bd ec ef cc 3d 41 b4 27 3d
       -0.011222631 -0.07157967 0.10006699 0.040943388
0003e0 d0 73 1a bd c8 90 02 3f 16 e0 08 3d 0c ea f2 3c
       -0.037708104 0.5100217 0.03341683 0.029652618
0003f0 16 28 b7 3c a0 8e 29 bc 2c b1 48 bd 48 dd 6f 3d
       0.022357982 -0.010348946 -0.04899709 0.05856064

transformer_layers.0.attention.value.bias f4 [64]
000000 53 85 e6 3e f9 ac b0 3f 8f 2c 38 3e 2c 9f a2 bd
       0.45023593 1.3802787 0.17985748 -0.07940516
000010 d8 7a 25 3e 02 80 6c 3e 29 3a 2b bf 25 f9 9a be
       0.16160142 0.23095706 -0.6688562 -0.30268207
000020 e1 5d 98 3e b1 38 d5 3e 45 3d 6e 3e 0b a2 4c 3e
       0.29759124 0.41644815 0.2326556 0.1998369
000030 21 14 6e be 6b c8 20 c0 a8 fc ac bf d6 6b 8a 3e
       -0.23249866 -2.5122325 -1.3514605 0.27035397
000040 75 67 39 3e 3b a0 aa be a7 31 07 3f 30 81 21 3f
       0.18105872 -0.3332537 0.5281014 0.6308775
000050 d0 92 c0 3e a4 90 0c 3e 2b d7 a1 bf 9d 33 24 be
       0.3761201 0.13727051 -1.2643789 -0.16035314
000060 8a 8e 17 3e de 92 74 3f be fb b9 bd 40 92 3b 3f
       0.14800468 0.955366 -0.09081219 0.73270035
000070 0d 4a 8d 3d 78 d4 7a bf c5 c7 3a 3e 63 d7 af be
       0.0689889 -0.9798045 0.18240269 -0.34344015
000080 38 66 3a 3f 96 8f b1 bf 4b 32 9b 3e 15 be 0d 3f
       0.72812223 -1.3871944 0.30311808 0.5536817
000090 8e 80 90 bf c6 58 83 bf 42 42 6a be 7f 04 7c be
       -1.1289232 -1.0261467 -0.22876838 -0.2461109
0000a0 e7 46 87 3d c6 11 24 be c6 0a 42 3f 60 3c 02 bd
       0.066053204 -0.16022405 0.7579769 -0.03179586
0000b0 5a a8 b4 3e b4 8f 00 be bc a3 4a bf 99 b7 0a 3f
       0.35284692 -0.12554818 -0.7915609 0.541864
0000c0 d4 20 4b bf 4d d5 bb be 0e 0c b2 3d ba 0c 9c 3e
       -0.79346967 -0.36686173 0.086937055 0.3047846
0000d0 91 08 e2 be 1e ef 2d 3f 8f 9e 2f 3e d3 0c 09 3e
       -0.4414716 0.6794299 0.17150329 0.13383798
0000e0 f6 a9 81 3f 0d ed 30 3e ea bc 6d 3d dd ce cd 3f
       1.0129993 0.17277928 0.05804149 1.6078755
0000f0 69 61 e4 be 6d f6 d7 be 3f fd 0b 3f 9d 69 b9 3f
       -0.44605568 -0.42180195 0.546833 1.4485356

transformer_layers.0.layer_norm1.weight f4 [64]
000000 13 ea 94 bb cb 07 5c bb f1 4c 08 bc e3 0b 4e bc
       -0.0045445054 -0.003357398 -0.0083191255 -0.012576076
000010 1b b6 97 3e d4 3e 15 bb 1d 36 c3 3e b7 08 47 bb
       0.29631123 -0.0022773044 0.38127223 -0.0030370185
000020 a4 26 b7 3e f4 0c 2b 3b dd 58 86 3e 6b 17 02 3f
       0.35771668 0.002610025 0.26239672 0.50816983
000030 01 3f d1 bc f2 8d 18 3b 70 fa ab ba e9 54 96 3e
       -0.025542738 0.0023277965 -0.0013120901 0.29361656
000040 99 52 6a 3e 22 1f c7 3e ba 27 aa 3e a7 9c 72 bb
       0.22883071 0.3889094 0.33233434 -0.0037019642
000050 da 42 d0 3e 43 36 0d bc 50 67 d8 3e 23 e8 e6 3e
       0.40676004 -0.008618894 0.4226632 0.4509898
000060 9a c1 07 3f ea ba 04 bb f4 fb e3 3e 6f 1d 0d bb
       0.5302979 -0.002025301 0.44528162 -0.0021532436
000070 9b 97 ee 3e 3c 73 23 bb ee 2f 26 3d 89 c0 4c bc
       0.4660004 -0.0024940511 0.040573053 -0.012497076
000080 6f 13 fb bb 6a 5d d0 3a 27 50 02 3b 7a 10 7e bb
       -0.007662229 0.001589698 0.00198842 -0.0038767145
000090 26 5a da 36 62 e4 6a 3b 28 bc f4 3b f9 63 ee bb
       6.507401e-06 0.0035841693 0.007468719 -0.0072751013
0000a0 eb f7 2d 3b 2d b8 0c 3f 30 c8 89 bb cd 5c 0e bb
       0.0026545476 0.5496853 -0.0042047724 -0.0021722794
0000b0 fd 5b 3e 3b 4b 79 16 bc 2f 12 6e bb 3e 63 07 3b
       0.0029046529 -0.009184192 -0.0036326756 0.0020658518
0000c0 7e 10 ba 3e e6 00 d1 3e 8d a0 b4 3e d2 0d 43 3e
       0.36340708 0.40820998 0.3527874 0.19048241
0000d0 a0 bd e8 bb a8 60 90 3e da fa b0 3e 18 74 cc bb
       -0.007102683 0.28198743 0.34566385 -0.0062394254
0000e0 84 a1 83 3e 09 c4 de 3e 9a 2d d9 3b 42 e4 4f 3e
       0.25709164 0.43508938 0.0066277506 0.20301917
0000f0 68 f8 45 3c bb af 0e bb 40 92 ed 38 b1 ef 66 3e
       0.01208315 -0.0021772224 0.00011328282 0.22552373

transformer_layers.0.layer_norm1.bias f4 [64]
000000 cd 62 bc bb 98 06 ab ba 34 13 32 3c c7 a5 e4 3b
       -0.0057490827 -0.001304823 0.010868836 0.00697777
000010 0f 05 fa bd dd e5 bb 3a ea 39 09 3f 94 d8 d9 3b
       -0.12207996 0.0014335472 0.53603995 0.0066481326
000020 76 a7 2c be d0 75 0a bb a7 be d7 bd 56 36 b7 be
       -0.16860756 -0.002112735 -0.10534411 -0.35783643
000030 06 00 45 bb 0a 4b 35 bb a6 4d c7 3b 50 ec bc 3d
       -0.0030059828 -0.0027663135 0.0060822545 0.092247605
000040 4b e1 c7 3d f5 5a e9 3d 07 6d ca bd 1d 87 d0 b9
       0.09759768 0.11394302 -0.098840766 -0.0003977352
000050 68 ba 40 be 24 d3 ec 3b 83 d2 da 3e 6c 95 1f 3e
       -0.18821108 0.0072273184 0.42738733 0.15584344
000060 0e 1b 11 bf b4 87 ad 3a 00 c4 a6 be 3b fd d2 bb
       -0.5668191 0.0013239295 -0.3257141 -0.006438879
000070 a3 62 01 3e d6 59 9e 3a 70 a1 b1 bc 53 19 57 3c
       0.12635283 0.0012081217 -0.021683425 0.013128596
000080 74 a6 8c bb f0 60 0e 3a cd f7 01 bc d8 9a b4 bb
       -0.0042923037 0.0005431315 -0.0079326155 -0.005511623
000090 74 df c1 3b 3e 08 0e bc 3c 4f 70 3b b6 83 b3 ba
       0.0059165303 -0.008668957 0.003666832 -0.0013695869
0000a0 54 77 bd ba 8b f7 69 3e 09 d9 8d ba 0b 69 47 3c
       -0.0014455118 0.22848336 -0.0010822128 0.01217104
0000b0 e8 fe 3e ba 92 73 07 3c 6b d8 99 3b 46 36 38 3b
       -0.0007285909 0.0082673 0.0046949885 0.0028108521
0000c0 41 cc d2 3e 4e f2 69 3d 8f 94 b3 be e3 08 20 be
       0.41171458 0.057115845 -0.3507428 -0.1562839
0000d0 2a fb 2d 3b 99 d7 3c be 59 d5 29 be be fb c6 bb
       0.002654741 -0.18441619 -0.16585292 -0.0060724905
0000e0 8b c2 09 be e8 f5 11 3e fc 77 f7 3a 55 fe 66 be
       -0.13453119 0.14253962 0.0018880363 -0.22557957
0000f0 07 5d 8b bb da 52 ab 3b ee 3b e7 ba a6 af af be
       -0.004253033 0.0052283825 -0.0017641762 -0.34313697

transformer_layers.0.feed_forward.0.weight f4 [128, 64]
000000 df df 3c 3e 8f c4 91 bd 70 3a 98 bd f0 c0 57 3e
       0.18444775 -0.07117569 -0.07433021 0.21069694
000010 81 9d 0b be 9c c6 96 be 26 d7 7a 3e 7d ed 31 3e
       -0.13634302 -0.29448402 0.24496135 0.17375751
000020 77 a1 32 3b 1b 07 a1 3d b3 6c 7d 3e 5e 70 26 be
       0.0027256885 0.078626834 0.24748497 -0.16253802
000030 30 1e c8 3d 88 af 3b be 8a 9d f5 3f 45 b9 54 3e
       0.09771383 -0.18328679 1.9188702 0.207738
000040 29 3c 81 bc 0b 12 6b 3e 2d 75 e0 bd 1f 3b 17 be
       -0.015775757 0.22956102 -0.109598495 -0.14768647
000050 16 1b 21 bd 07 3c f2 3d f9 ad 27 bd 77 23 83 bd
       -0.03933247 0.118278556 -0.040937398 -0.06403249
000060 dd 1f 38 be 62 66 19 bc 5f 6c 70 bd f4 de 42 3e
       -0.17980905 -0.009362789 -0.0586971 0.19030362
000070 76 6d 0f 3e d3 8d af 3e 74 af de be 14 3e 06 3f
       0.140066 0.3428789 -0.43493235 0.52438474
000080 ea d3 28 3e 86 de e9 bb 68 64 2c 3e 25 bb 0a 3e
       0.16487089 -0.0071371226 0.16835177 0.13547952
000090 82 6c fd 3c 00 e7 7f 3e bf 09 de 3e 43 0b a6 bd
       0.03093553 0.24990463 0.4336681 -0.08107617
0000a0 f4 e7 aa 3e 72 ec 97 3f e4 d2 29 bf 0d ba 49 3e
       0.3338009 1.1869032 -0.6633742 0.19699879
0000b0 bc 8b 97 bc b6 42 95 3d 82 bc 7f bd 8b 40 74 bd
       -0.018499248 0.07288115 -0.062435634 -0.059631865
0000c0 0a 81 08 3e c3 ab 3d be 17 ce 01 be 4d 17 8c 3d
       0.13330474 -0.18522553 -0.12676273 0.06840382
0000d0 55 ed 4d 3f 78 13 a9 bf ae ae f1 be fb 02 e7 be
       0.80440265 -1.3209066 -0.47203583 -0.4511946
0000e0 6d a3 ea be 8d 85 0e be 42 a0 7e b8 95 ed 6c be
       -0.4582781 -0.13918133 -6.070757e-05 -0.23137505
0000f0 30 80 57 be ff f2 7e bc 59 c7 e6 3d b5 fb ab 3e
       -0.21044993 -0.0155608645 0.11268491 0.33590475
000100 48 9e 23 3d 93 2c 81 3d 15 cb 7a 3e 26 64 a6 3e
       0.03994587 0.0630733 0.24491532 0.32498282
000110 81 2d 2a 3c f4 54 1e bf ef d0 fa 3e 4e e0 45 3d
       0.010386826 -0.6184838 0.4898753 0.048309617
000120 41 25 42 3e bd 9c ea 3b 52 bd 89 3e 2f 5a 8c be
       0.18959524 0.007159798 0.26902252 -0.27412555
000130 7c 37 a8 3e 58 2f 99 bc e5 7f 94 3f 70 a3 24 3d
       0.3285483 -0.018699333 1.160153 0.04019493
000140 5c 68 79 bd e0 61 aa be 9b 90 97 3e 74 27 83 bb
       -0.06089054 -0.33277798 0.29602513 -0.004002506
000150 fc a0 13 3f 3a a9 c8 bc 3f e5 52 3c 28 99 0f bf
       0.5766752 -0.024494756 0.012872039 -0.5609307
000160 59 42 85 be fa de 06 bd 5a 8a 43 bd 01 05 05 be
       -0.26027182 -0.03292749 -0.047739364 -0.1299019
000170 d6 20 02 3f d9 7f 24 bb 74 52 b9 3e 92 df 4c 3f
       0.50831354 -0.0025100617 0.3619572 0.8002864
000180 0a e9 b5 bb db ab 8d 3c 34 9c 40 3c 72 21 79 3e
       -0.005551462 0.017293861 0.011755992 0.24329165
000190 18 b3 ae be e0 fc 9b bb 44 1e 6e 3f 71 ae c9 bb
       -0.34121013 -0.0047603697 0.9301493 -0.0061548282
0001a0 06 ca 23 bd d1 e6 9b 3f dd 35 30 bf 43 c7 40 bd
       -0.039987586 1.2179815 -0.6883219 -0.04706503
0001b0 f0 7e 25 bf b1 b9 11 3c ea 16 90 3e 14 18 af bd
       -0.64646816 0.00889437 0.28142482 -0.085495144
0001c0 8f 2b 6a 3e 0b dc 8d be 72 c5 c2 3d fe 44 ea 3e
       0.22868179 -0.27706942 0.09510316 0.45755762
0001d0 e8 46 13 3f c8 d6 29 bf c1 67 dc be 01 50 37 bf
       0.5753007 -0.66343355 -0.43047908 -0.7160645
0001e0 09 75 d8 bd 1d a4 91 bd f5 70 fd 39 47 53 da bd
       -0.10569198 -0.0711138 0.0004834008 -0.10660415
0001f0 de e8 80 be 96 6d 07 bf 20 02 2d be 9c 8f cf bd
       -0.25177664 -0.5290159 -0.16895342 -0.10134813
000200 08 19 09 bc 26 fd 2c bd 15 3a c2 3c be 71 d6 3e
       -0.008367784 -0.04223361 0.023709336 0.41883653
000210 e7 ef 17 3d e9 ca 17 bc a7 2c 16 3e d4 9e 8b be
       0.037094023 -0.009264686 0.14665471 -0.27269614
000220 d4 0d 9a 3e 6f 95 0d 3d 6b b2 b6 3e 18 18 a7 bc
       0.30088675 0.03456634 0.35682997 -0.020397231
000230 2f 49 6a bc 0b 43 52 bd 0f 7e 1c 3f af 09 04 3d
       -0.014299675 -0.05133347 0.6112985 0.032235797
000240 19 4e 33 bd 06 c8 b0 be 23 1e 68 3e 54 11 06 bd
       -0.04377565 -0.34527606 0.22667746 -0.03273137
000250 28 82 c9 3e 10 f5 cb 3d ae 59 bf bd b1 3d f0 be
       0.39357114 0.09958851 -0.09343277 -0.46922067
000260 94 d5 1d 3d 74 4e 86 bd 3f 46 08 3e 75 72 5e 3e
       0.038533762 -0.065579325 0.13308047 0.2172335
000270 9b 0d 3f 3e ee 73 7e bc da cc c4 3e d7 51 b2 3e
       0.18657534 -0.0155305695 0.3843754 0.34828064
000280 90 07 48 3c 78 2d 5b 3d 06 59 3a 3d 15 01 20 3e
       0.012208834 0.05351016 0.045495056 0.15625413
000290 a5 fa bf be be 38 c1 ba 1e 86 b7 3e d7 ee aa 3d
       -0.37495914 -0.0014741642 0.3584451 0.08346336
0002a0 cf f3 11 3d 26 bd 44 3f 61 b3 08 bf 4c 9f 32 bd
       0.035632905 0.7685112 -0.5339871 -0.04360895
0002b0 4e a3 18 be a7 df 88 3d 8c a2 8e be 9e eb 80 3e
       -0.14906046 0.06683283 -0.27858388 0.25179762
0002c0 91 ba 79 be f5 39 e9 be ab ae 58 3e f4 a1 85 3e
       -0.24387576 -0.4555203 0.2116038 0.26100123
0002d0 35 d2 89 3e 71 34 fe be aa aa 48 be 2f b8 bd be
       0.26918188 -0.49649385 -0.19596353 -0.37054583
0002e0 6a 0a 02 3d 7e 8f 24 3d 8f 6d 34 3d 3a eb cc bd
       0.031748213 0.040175907 0.044049796 -0.100058034
0002f0 91 5f 19 be 01 ac 09 bf a1 e0 81 bd 93 e5 b3 3e
       -0.14977862 -0.5377808 -0.06341673 0.3513609
000300 71 ab 85 3d 55 e9 d6 3d 14 d3 82 bc d1 84 22 bd
       0.065268405 0.10493723 -0.01596979 -0.039677445
000310 81 90 f8 bd 4a a4 51 3c aa 61 3e 3e da f6 a4 bc
       -0.12136937 0.012795517 0.18591943 -0.02013724
000320 4c c3 c1 3a aa a6 d8 bd 2f 4a cc bc 40 73 aa bd
       0.0014782934 -0.10578664 -0.024937717 -0.083227634
000330 dc aa 04 3e 87 de 94 3d 1a 5f 07 3d 07 31 31 3d
       0.12955803 0.07269006 0.03304968 0.043259647
000340 c8 44 77 bd 84 11 2d 3d 06 94 c8 3d ba 7b 1e bd
       -0.06036833 0.042253032 0.09793858 -0.038692214
000350 a6 79 b3 bc a1 c4 bb bd a9 9f 53 3d 9c 3f dc bd
       -0.021908592 -0.09168363 0.051665936 -0.1075432
000360 38 be 92 bd 99 9e 0a be 43 74 83 bc 17 f2 ec 3b
       -0.071651876 -0.13537063 -0.016046649 0.007231008
000370 84 13 60 3d 8e 1c 31 bd 48 47 81 3d 16 84 08 3e
       0.05470611 -0.043240122 0.06312424 0.13331637
000380 1f 45 1e 3d 61 60 ec 3d 45 7b 68 bd 83 16 d6 3b
       0.038640138 0.1154182 -0.056758184 0.0065334453
000390 90 ef 1a 3e 22 ad 01 3d 32 47 d6 3d 71 0e 95 bd
       0.15130448 0.031659253 0.10462798 -0.07278145
0003a0 81 8b e7 bd 84 89 89 bd d0 14 6c bb 80 4e ef 3d
       -0.11305905 -0.06715682 -0.0036023147 0.116848946
0003b0 65 1a 80 bd e5 aa bf bd ce ad fb bb 8f 6f cf 3d
       -0.06255034 -0.093587674 -0.0076806312 0.101287
0003c0 da e3 b0 3d be eb f9 3d 66 6e d6 bd 9a 9b 1a bd
       0.08637209 0.122031674 -0.104702756 -0.03774605
0003d0 02 21 56 3e 92 ad d6 bd 01 f7 c0 bd 4e 21 ba 3c
       0.20911029 -0.10482325 -0.09422112 0.022720959
0003e0 fc 1e 9a 3d 01 31 46 bd 61 ca e8 bd dd 3b 82 bc
       0.07525441 -0.048386578 -0.11366726 -0.015897686
0003f0 e0 ab 26 3d 20 94 46 3e c3 05 f6 bb 50 9a 22 be
       0.040691257 0.19392443 -0.007508011 -0.15879178
